…
tum=0.8, warmup_bias_lr=0.1, box=7.5, cls=0.5, dfl=1.5, pose=12.0, kobj=1.0, label_smoothing=0.0, nbs=64, hsv_h=0.015, hsv_s=0.7, hsv_v=0.4, degrees=0.0, translate=0.1, scale=0.5, shear=0.0, perspective=0.0, flipud=0.0, fliplr=0.5, bgr=0.0, mosaic=1.0, mixup=0.0, copy_paste=0.0, auto_augment=randaugment, erasing=0.4, crop_fraction=1.0, cfg=None, tracker=botsort.yaml, save_dir=/workspace/Yolov8/results/train/train6
Overriding model.yaml nc=15 with nc=16
                   from  n    params  module                                       arguments
  0                  -1  1      2320  ultralytics.nn.modules.conv.Conv             [3, 80, 3, 2]
  1                  -1  1    115520  ultralytics.nn.modules.conv.Conv             [80, 160, 3, 2]
  2                  -1  3    436800  ultralytics.nn.modules.block.C2f             [160, 160, 3, True]
  3                  -1  1    461440  ultralytics.nn.modules.conv.Conv             [160, 320, 3, 2]
  4                  -1  6   3281920  ultralytics.nn.modules.block.C2f             [320, 320, 6, True]
  5                  -1  1   1844480  ultralytics.nn.modules.conv.Conv             [320, 640, 3, 2]
  6                  -1  6  13117440  ultralytics.nn.modules.block.C2f             [640, 640, 6, True]
  7                  -1  1   3687680  ultralytics.nn.modules.conv.Conv             [640, 640, 3, 2]
  8                  -1  3   6969600  ultralytics.nn.modules.block.C2f             [640, 640, 3, True]
  9                  -1  1   1025920  ultralytics.nn.modules.block.SPPF            [640, 640, 5]
 10                  -1  1         0  torch.nn.modules.upsampling.Upsample         [None, 2, 'nearest']
 11             [-1, 6]  1         0  ultralytics.nn.modules.conv.Concat           [1]
 12                  -1  3   7379200  ultralytics.nn.modules.block.C2f             [1280, 640, 3]
 13                  -1  1         0  torch.nn.modules.upsampling.Upsample         [None, 2, 'nearest']
 14             [-1, 4]  1         0  ultralytics.nn.modules.conv.Concat           [1]
 15                  -1  3   1948800  ultralytics.nn.modules.block.C2f             [960, 320, 3]
 16                  -1  1    922240  ultralytics.nn.modules.conv.Conv             [320, 320, 3, 2]
 17            [-1, 12]  1         0  ultralytics.nn.modules.conv.Concat           [1]
 18                  -1  3   7174400  ultralytics.nn.modules.block.C2f             [960, 640, 3]
 19                  -1  1   3687680  ultralytics.nn.modules.conv.Conv             [640, 640, 3, 2]
 20             [-1, 9]  1         0  ultralytics.nn.modules.conv.Concat           [1]
 21                  -1  3   7379200  ultralytics.nn.modules.block.C2f             [1280, 640, 3]
 22        [15, 18, 21]  1  10059379  ultralytics.nn.modules.head.OBB              [16, 1, [320, 640, 640]]
YOLOv8x-obb summary: 390 layers, 69494019 parameters, 69494003 gradients, 264.0 GFLOPs
Transferred 631/637 items from pretrained weights
WARNING ⚠️ Comet installed but not initialized correctly, not logging this run. Comet.ml requires an API key. Please provide as the first argument to Experiment(api_key) or as an environment variable named COMET_API_KEY
[34m[1mTensorBoard: [39m[22mStart with 'tensorboard --logdir /workspace/Yolov8/results/train/train6', view at http://localhost:6006/
…
